drug_recommendation_model.pth (torch, 782121 bytes, 24 tensors)

0.weight f4 [256, 77]
-0.013577599 -0.030126626 0.034730803 -0.06864785 0.061134815 -0.07676444 -0.115718395 -0.05013061
-0.05765537 -0.09459771 0.10962616 0.049112517 0.07034153 -0.10713745 -0.13142644 0.051205974
0.06269318 -0.006533757 0.026017336 -0.08348349 0.0490488 -0.12000264 0.09421793 -0.0076546096
-0.1021911 0.03454492 0.049928743 -0.055301577 0.034957357 -0.0491088 0.035364807 -0.035177387
-0.17043623 -0.06645947 0.029285856 0.07035226 0.013532737 -0.042511005 0.097947955 -0.04708613
-0.093170665 0.043819264 -0.07448295 0.00033922438 0.021522243 0.0928387 -0.063213475 0.07275194
-0.011157223 0.0958623 -0.054876428 0.12867408 -0.045168936 0.05820266 -0.10876168 0.09645617
-0.091245174 0.09411956 -0.06932857 -0.06256053 -0.0069974395 -0.119575664 0.0031807655 -0.104625046
0.07202819 0.09013675 0.013303771 0.032829538 0.07601036 0.039011415 0.04570791 0.08733459
0.064508535 -0.02349376 -0.0795553 0.06575591 -0.063272364 0.04888933 0.002308876 0.01261647
0.10730857 0.04372153 -0.06587683 0.043806102 0.018742196 0.039248526 0.098112404 0.02434461
-0.019324493 0.12014097 -0.012118923 -0.088352546 -0.05310881 -0.06290884 -0.10937962 -0.090983324
-0.09710035 -0.07859319 -0.121368274 0.08734581 -0.07170001 -0.02763509 0.009088072 0.08781153
-0.06474239 0.049804024 0.06721136 -0.074579366 0.027444167 -0.08462052 -0.105548576 0.106633805
-0.08007493 -0.1097886 0.028067533 -0.10943947 0.064992025 -0.053926703 0.11774161 0.12616661
0.0528198 -0.116007075 0.046389483 -0.0811956 -0.020069642 -0.025943158 -0.07942009 -0.11487208
-0.03274343 0.12253689 -0.04952874 -0.07174724 0.04342425 0.00016039883 -0.10419703 -0.022756133
0.042331107 -0.033661067 -0.024964755 0.05998809 0.020991096 -0.030661834 0.02273928 -0.10142269
0.003678892 -0.004161401 0.06874664 0.02159928 -0.12394873 -0.081850685 -0.031186799 -0.051670317
0.09642163 -0.027601786 0.0141289355 -0.07249164 0.06626005 -0.068061516 -0.049612407 0.0135473935
-0.106993064 -0.016515814 -0.09224247 0.03138085 -0.09855641 0.06692029 -0.0412823 0.053398382
0.049260486 0.072956644 0.046797656 -0.069370165 -0.030554676 -0.1249592 0.10018687 -0.053457767
0.03574751 -0.03184508 -0.070914045 -0.09680363 -0.04846668 -0.02984323 0.06453751 0.03161899
-0.0030436162 0.06380845 0.042551365 -0.07574641 -0.022452446 -0.17308395 -0.04969732 -0.04537885
-0.071832374 0.12542933 0.07393091 -0.08879948 0.036290046 0.003584201 0.097403266 0.0029559904
0.08890997 -0.04584751 0.010040822 -0.058911923 -0.065367505 0.06267687 0.113709636 0.048937965
-0.12151042 0.025949603 -0.15307352 0.064340435 -0.005909526 0.0779206 0.07690376 0.08617408
0.06677055 0.13561332 0.03884678 0.049149796 0.04968226 -0.04658392 0.0782356 -0.08045123
0.07981933 0.12429189 -0.029579712 0.028686613 -0.032043543 -0.03578387 -0.13567162 0.001557566
0.06215821 -0.043363832 -0.07057034 0.025438879 0.028089643 0.01876982 0.109495796 0.08895614
-0.05815979 0.11744686 0.050564796 -0.020625735 0.04345192 -0.07349823 -0.052957065 -0.022866923
0.04780009 0.04184388 -0.07950502 -0.08160586 -0.12291506 0.054752704 -0.029930625 0.0064696935
00000000: 9474 5ebc 1dcc f6bc e341 0e3d 3e97 8cbd
00000010: 8068 7a3d ad36 9dbd c4fd ecbd c155 4dbd
00000020: 0a28 6cbd 72bc c1bd ae83 e03d 352a 493d
00000030: 380f 903d e16a dbbd a794 06be 5bbd 513d
00000040: 4865 803d 2019 d6bb 4f22 d53c 64f9 aabd
00000050: 65e7 483d f2c3 f5bd 55f5 c03d 85d3 fabb
00000060: 9149 d1bd f97e 0d3d 1582 4c3d e883 62bd
00000070: 722f 0f3d 4f26 49bd b0da 103d 2a16 10bd
00000080: d686 2ebe e71b 88bd e4e8 ef3c d814 903d
00000090: 6ab8 5d3c 0520 2ebd f098 c83d 63dd 40bd
000000a0: 43d0 bebd d47b 333d 848a 98bd edd9 b139
000000b0: 6a4f b03c 3722 be3d 1176 81bd f8fe 943d
000000c0: c9cc 36bc 7453 c43d 1bc6 60bd 23c3 033e
000000d0: 1003 39bd ea65 6e3d 72be debd d08a c53d
000000e0: c0de babd c2c1 c03d 23fc 8dbd bc1f 80bd
000000f0: c74a e5bb 16e4 f4bd 6474 503b a845 d6bd
00000100: 8483 933d 9e99 b83d 0ff8 593c 4478 063d
00000110: 52ab 9b3d 6fca 1f3d 3838 3b3d 7adc b23d
00000120: 0d1d 843d fc75 c0bc e4ed a2bd 09ab 863d
00000130: f194 81bd 2e40 483d 8350 173b 50b5 4e3c
00000140: 98c4 db3d 5915 333d 6eea 86bd 076e 333d
00000150: 3c89 993c 10c3 203d 28ef c83d 596e c73c
00000160: 664e 9ebc 780c f63d 728e 46bc 2ef2 b4bd
00000170: a088 59bd 5ad6 80bd 6c02 e0bd 7755 babd
00000180: 8cdc c6bd 77f5 a0bd ee8f f8bd 5ce2 b23d
00000190: 74d7 92bd fc62 e2bc 23e6 143c 88d6 b33d
000001a0: a897 84bd 4eff 4b3d 1ca6 893d 11bd 98bd
000001b0: 97d2 e03c 864d adbd da29 d8bd d362 da3d
000001c0: 53fe a3bd d8d8 e0bd e2ed e53c cd21 e0bd
000001d0: 8a1a 853d 3fe2 5cbd 8322 f13d d231 013e
000001e0: 9359 583d 1e95 edbd e602 3e3d e149 a6bd
000001f0: 1769 a4bc bf86 d4bc 00a7 a2bd 0e42 ebbd
00000200: fa1d 06bd 9ff4 fa3d a6de 4abd 38f0 92bd
00000210: a0dd 313d bc30 2839 4165 d5bd 126b babc
00000220: 6263 2d3d 30e0 09bd e382 ccbc 12b6 753d
00000230: 85f5 ab3c 872e fbbc ba47 ba3c b3b6 cfbd
00000240: 9119 713b 5d5c 88bb 0acb 8c3d f9f0 b03c
00000250: d5d8 fdbd 55a1 a7bd 757b ffbc 41a4 53bd
00000260: b478 c53d 241d e2bc 0d7d 673c 7f76 94bd
00000270: 59b3 873d d663 8bbd 6136 4bbd e3f5 5d3c
00000280: 2e1f dbbd 2c4c 87bc 9fe9 bcbd 3589 003d
00000290: f1d7 c9bd 810d 893d a117 29bd 43b8 5a3d
000002a0: 5dc5 493d 4b6a 953d e6ae 3f3d f211 8ebd
000002b0: cd4d fabc 9cea ffbd c62e cd3d 88f6 5abd
000002c0: fb6b 123d fd6f 02bd 623b 91bd fb40 c6bd
000002d0: ff84 46bd ca79 f4bc 3e2c 843d ea82 013d
000002e0: 6877 47bb 01ae 823d 574a 2e3d ef20 9bbd
000002f0: 31ee b7bc eb3c 31be 6b8f 4bbd 2cdf 39bd
00000300: da1c 93bd 8c70 003e 1769 973d 80dc b5bd
00000310: dfa4 143d eae4 6a3b 5d7b c73d 4ab9 413b
00000320: 6e16 b63d 99ca 3bbd 4382 243c a14d 71bd
00000330: 66df 85bd bb5c 803d 99e0 e83d 2d73 483d
00000340: 75da f8bd 4394 d43c 4ebf 1cbe ebc4 833d
00000350: b2a4 c1bb d694 9f3d b87f 9d3d 097c b03d
00000360: 00bf 883d 38de 0a3e cd1d 1f3d 4c51 493d
00000370: a07f 4b3d c8ce 3ebd fc39 a03d 9dc3 a4bd
00000380: 5178 a33d bf8c fe3d 2751 f2bc 3000 eb3c
00000390: 1740 03bd 1b92 12bd 80ed 0abe 3e27 cc3a
000003a0: 9b99 7e3d 469e 31bd 2f87 90bd 3265 d03c
000003b0: 401c e63c 2ac3 993c 553f e03d a32e b63d
000003c0: f638 6ebd fb87 f03d 081d 4f3d 4df7 a8bc
000003d0: a4fa 313d 3d86 96bd 82e9 58bd 6a53 bbbc
000003e0: 07ca 433d 7d64 2b3d 87d3 a2bd f920 a7bd
000003f0: e4ba fbbd 5f44 603d 1231 f5bc b9ff d33b

0.bias f4 [256]
-0.041400056 -0.03233568 -0.08790252 -0.1311774 -0.109168194 -0.08354273 -0.026355082 0.037258364
0.015380029 0.011547723 -0.047188364 -0.068613194 -0.11684629 -0.041487183 -0.10857664 -0.08760321
-0.041846827 -0.056173753 -0.1048548 -0.06269385 0.05548765 -0.091887996 -0.020370653 0.053997584
0.02680703 -0.039050806 -0.018797787 0.079394564 0.073378205 0.07426743 0.01506582 -0.1298832
-0.035809472 -0.069190376 0.0041895485 -0.053589955 0.02602933 0.04423794 0.061422534 0.0907298
-0.07279115 0.073315725 -0.038544986 0.091459654 -0.10401504 -0.0572463 -0.037423432 -0.020368628
0.04889099 0.03877565 0.037552845 -0.111042894 -0.06362614 -0.12516981 -0.08547394 0.10029148
-0.10681152 0.11611551 -0.03656101 0.092858344 -0.073467486 -0.12804455 -0.018117992 0.10945871
0.038663737 0.05707365 -0.0054259584 0.045618 0.05495135 -0.010657186 0.09888557 0.07581461
0.10847827 -0.12558344 -0.027687486 0.082105555 0.060427107 0.09257997 0.03455211 0.10873281
-0.008282232 -0.035859667 -0.01963517 -0.07849825 -0.06176117 -0.12575059 0.023146573 -0.11409259
0.075092316 -0.08576397 0.100089416 0.02614301 -0.09556953 -0.0494249 -0.061879367 0.017131988
-0.068208404 -0.0314987 -0.09842208 -0.10433373 0.07452901 -0.05324193 -0.13398147 0.0035555188
0.034596857 0.029487181 -0.07506872 0.09482222 -0.17168805 -0.03110787 -0.041033402 0.03830031
-0.12617017 0.114370845 0.032522734 -0.11548693 0.053960964 -0.095773995 -0.112101234 -0.08695102
-0.13584557 0.0062753223 -0.05896111 -0.031115191 0.08540193 0.118244626 0.01180289 0.102380104
0.094956174 -0.12576905 -0.14896137 0.09271475 -0.11647961 -0.07496792 0.09137073 -0.10750127
-0.0063380706 -0.14640152 -0.036623288 -0.09373763 0.058250878 -0.0063286107 0.0067120944 0.005855728
0.026910227 -0.13119817 0.029747088 -0.009641294 -0.02417553 -0.015050757 -0.07643234 0.07170793
0.060751777 0.097962834 0.09095089 -0.098558515 -0.083181866 -0.04261034 -0.09862317 -0.09182765
-0.011832774 -0.03228169 -0.023732 -0.033477053 -0.07817692 0.04148638 0.08801578 0.030133616
0.027688038 -0.04437048 -0.06451054 -0.0986601 0.08628042 0.09542834 -0.08238891 0.05008012
-0.04827711 -0.020296821 0.009742502 0.0663012 0.10459955 0.035092674 -0.1114301 -0.08300156
0.040095467 -0.12689804 -0.12600134 -0.10978396 -0.013205455 0.058654625 -0.020515176 -0.045350265
0.027930196 -0.019484937 0.024766456 -0.14154328 -0.08884501 -0.024340536 0.079648 -0.053839494
-0.020599239 -0.018016856 -0.06813272 -0.0794766 -0.00885812 0.10695051 -0.124224454 -0.00037038102
-0.07500161 0.01851626 0.11940465 -0.070570186 0.10451611 0.011368583 0.047162816 -0.10097036
-0.10787607 -0.1080587 0.08861787 -0.015205661 0.04258934 0.01141262 -0.09280487 -0.015765926
-0.06114392 -0.021764444 0.009231804 -0.006654031 -0.13300781 -0.12293292 0.021233093 -0.12936607
0.049937084 0.022590706 -0.11136582 -0.09059348 0.00479446 0.056736317 -0.09455483 0.09669199
-0.010172655 0.10193536 0.0606746 -0.034467272 0.055400744 -0.08115919 -0.07876097 -0.01508395
-0.11111005 0.031028422 0.022545269 -0.011413611 -0.06362169 0.010569526 0.097573295 0.026195077
00000000: 1b93 29bd 6b72 04bd 3d06 b4bd 5e53 06be
00000010: 9393 dfbd 7318 abbd 9de6 d7bc 3a9c 183d
00000020: 84fc 7b3c a932 3d3c 9648 41bd 1385 8cbd
00000030: 1c4d efbd 77ee 29bd 6e5d debd 5069 b3bd
00000040: 9467 2bbd 7316 66bd 1dbe d6bd a265 80bd
00000050: 0547 633d c62f bcbd 5be0 a6bc 922c 5d3d
00000060: 6b9a db3c bdf3 1fbd d1fd 99bc 9e99 a23d
00000070: 5047 963d 8619 983d a1d6 763c 1a00 05be
00000080: f4ac 12bd afb3 8dbd 7b48 893b 2481 5bbd
00000090: 763b d53c d832 353d 3296 7b3d 8cd0 b93d
000000a0: 8713 95bd 8e26 963d 59e1 1dbd 334f bb3d
000000b0: d605 d5bd 197b 6abd 5049 19bd 1cdc a6bc
000000c0: eb41 483d 37d3 1e3d 03d1 193d 756a e3bd
000000d0: 6c4e 82bd 842c 00be f60c afbd 9f65 cd3d
000000e0: 00c0 dabd f8cd ed3d ffc0 15bd 842c be3d
000000f0: 1f76 96bd 1c1e 03be 2f6c 94bc e32b e03d
00000100: de5d 1e3d 0fc6 693d 3dcc b1bb f1d9 3a3d
00000110: ab14 613d 7a9b 2ebc 8584 ca3d b144 9b3d
00000120: db29 de3d f298 00be ded0 e2bc f526 a83d
00000130: 6a82 773d 919a bd3d 8386 0d3d 4faf de3d
00000140: 33b2 07bc 96e1 12bd f0d9 a0bc b1c3 a0bd
00000150: 48f9 7cbd c3c4 00be e29d bd3c 60a9 e9bd
00000160: 00ca 993d 05a5 afbd aefb cc3d de29 d63c
00000170: f5b9 c3bd c471 4abd 3875 7dbd 6258 8c3c
00000180: d9b0 8bbd c804 01bd 8491 c9bd ecac d5bd
00000190: aaa2 983d 3614 5abd 7032 09be b503 693b
000001a0: 6fb5 0d3d 1a8f f13c a1bd 99bd 2732 c23d
000001b0: fece 2fbe efd5 febc a412 28bd c9e0 1c3d
000001c0: c132 01be 433b ea3d 8f36 053d 6984 ecbd
000001d0: 2c06 5d3d 2825 c4bd 5595 e5bd 6013 b2bd
000001e0: 1a1b 0bbe 38a1 cd3b 3481 71bd 49e5 febc
000001f0: 35e7 ae3d 3d2a f23d e960 413c a9ac d13d
00000200: 6278 c23d 9ac9 00be 5489 18be 3be1 bd3d
00000210: dd8c eebd c888 99bd 9420 bb3d a029 dcbd
00000220: 97af cfbb 48ea 15be 4d02 16bd 84f9 bfbd
00000230: 7998 6e3d 3c60 cfbb 21f1 db3b 68e1 bf3b
00000240: d672 dc3c d058 06be 2ab0 f33c 85f6 1dbc
00000250: c30b c6bc 7397 76bc 8f88 9cbd 9bdb 923d
00000260: dbd6 783d bda0 c83d 7644 ba3d 0cd9 c9bd
00000270: 415b aabd 2e88 2ebd f2fa c9bd 2310 bcbd
00000280: 40de 41bc ce39 04bd 9c69 c2bc 3c1f 09bd
00000290: 391b a0bd 9fed 293d 9e41 b43d c6da f63c
000002a0: 06d2 e23c d2bd 35bd 1a1e 84bd 4e0e cabd
000002b0: cab3 b03d ef6f c33d 84bb a8bd d020 4d3d
000002c0: 38be 45bd 8545 a6bc 049f 1f3c ecc8 873d
000002d0: 4a38 d63d 56bd 0f3d 7735 e4bd b9fc a9bd
000002e0: 253b 243d 8ff1 01be 7f06 01be 6ad6 e0bd
000002f0: b15b 58bc d53f 703d 710f a8bc 33c1 39bd
00000300: decd e43c e09e 9fbc 06e3 ca3c b9f0 10be
00000310: 5ff4 b5bd ce65 c7bc 7e1e a33d cd86 5cbd
00000320: bcbf a8bc 1698 93bc 2b89 8bbd a1c4 a2bd
00000330: a621 11bc de08 db3d 6469 febd b32f c2b9
00000340: 729a 99bd 69af 973c 6d8a f43d 1a87 90bd
00000350: 8b0c d63d 4b43 3a3c cc2d 413d 8cc9 cebd
00000360: 21ee dcbd e14d ddbd 497d b53d 2a21 79bc
00000370: 2972 2e3d fffb 3a3c 7b10 bebd 8b27 81bc
00000380: 0c72 7abd 594b b2bc fe40 173c 0f0a dabb
00000390: 3333 08be 41c4 fbbd 06f1 ad3c 8a78 04be
000003a0: d48a 4c3d 2510 b93c c313 e4bd 1389 b9bd
000003b0: d81a 9d3b 5764 683d f6a5 c1bd 7306 c63d
000003c0: 35ab 26bc 7cc3 d03d ee85 783d 8e2d 0dbd
000003d0: e4eb 623d ca36 a6bd 6e4d a1bd ac22 77bc
000003e0: aa8d e3bd 512f fe3c dbb0 b83c 2700 3bbc
000003f0: 174c 82bd ce2b 2d3c 82d4 c73d 0f97 d63c

3.weight f4 [128, 256]
-0.04610332 -0.040347986 -0.038138755 -0.052569974 -0.017292267 0.044545162 0.02738548 -0.02817397
-0.06774681 -0.011360869 -0.072236605 -0.0050973054 0.024338312 -0.009385327 0.015825007 0.024216637
0.021413077 0.004199865 -0.003914106 0.045949813 -0.04279562 -0.01422368 0.033594027 0.034336694
0.0020835095 0.023419738 0.0017695278 -0.0004438652 -0.04286896 0.013898782 0.032846946 -0.04695892
-0.07301434 -0.06422364 0.023939436 -0.03429597 0.0019273924 0.00596955 -0.04456645 -0.039085872
-0.009296529 -0.056884322 -0.028893407 -0.016880412 -0.0060699745 0.047560804 0.033811845 0.013165352
-0.025097514 -0.017551774 -0.070173986 -0.049199805 0.023593787 0.016207263 -0.018207239 0.040056936
-0.008314133 -0.07145407 -0.0052120923 0.035034977 -0.03808009 -0.062217686 -0.011376306 -0.067666896
-0.07070439 -0.031239614 -0.046142474 0.050627105 -0.010351907 0.010504807 -0.030916616 -0.028045718
-0.040056907 -0.04217045 -0.031072626 -0.035446376 7.3032905e-05 0.021353567 0.02554156 0.011812324
-0.025324782 0.002596736 0.020826083 -0.04287615 -0.022929449 -0.051593658 0.04477491 -0.017006893
0.02397752 0.017246177 0.0066690664 0.015824718 0.03735829 0.015363382 -0.027648866 0.028335651
-0.03811205 -0.021251004 -0.033172943 0.048234206 0.003976612 0.0321395 -0.037702147 -0.06050429
-0.04513601 -0.012328337 0.003839515 -0.07208175 -0.10235521 -0.05785117 0.052476462 -0.020765053
-0.009294725 -0.05160705 0.0529383 -0.07784012 0.007969615 0.010287438 0.037430055 -0.057509024
-0.041369766 0.03899705 -0.02341286 0.0059167803 -0.021555766 -0.060023315 -0.047590826 -0.09321133
-0.009446423 0.01849479 -0.05635447 -0.061629735 -0.0660928 0.03187889 -0.05560996 0.011729432
-0.03374131 0.009561652 0.019729216 -0.055205453 0.018428689 -0.0035896925 -0.056060527 -0.04401072
-0.056770656 0.02573971 -0.021850925 -0.043267872 -0.06865003 0.011044735 -0.042611346 -0.056382988
-0.030392872 -0.03826575 -0.06227899 0.019865632 -0.029586576 -0.023822144 -0.062129397 -0.059077367
-0.0128587205 -0.02046268 0.019976491 0.0072823414 -0.02563457 -0.051193435 -0.041331492 -0.05039166
-0.027270379 -0.047285292 -0.08392354 -0.022676531 -0.08746196 0.015193175 0.0345251 -0.029820576
-0.035549365 -0.007697978 -0.022692043 -0.008875378 -0.065416835 -0.053598106 0.07379864 -0.046043735
0.04165324 -0.06876984 -0.04803034 -0.057212606 -0.012734754 -0.0395579 -0.06600875 0.0147471465
-0.059671693 -0.06256409 -0.022206128 -0.029615283 -0.009668312 -0.006904483 -0.008325698 -0.055711284
0.029461218 -0.032193746 -0.034097865 -0.038314003 0.017523395 0.0180817 -0.044256918 -0.020899294
0.050717395 0.0016251003 -0.042306136 0.070589885 -0.048199262 0.0029097095 -0.0059383395 0.016415937
0.03298302 -0.03839939 0.010717725 0.048209235 0.0068511195 0.028709034 0.0044036885 0.047667105
-0.014037624 0.039973397 -0.022904968 -0.038328506 -0.022624096 -0.06518286 0.046908077 -0.03637283
-0.008003281 0.017078565 -0.03329429 -0.0543127 0.046573754 -0.041217223 0.012912009 0.0015572823
0.002065195 -0.07390917 0.017868426 -0.036728892 -0.06397607 -0.027796272 -0.044623677 0.0670432
-0.039962262 0.03676136 0.0020912932 -0.048420418 -0.019322105 0.02698775 0.035616886 -0.034381304
00000000: d6d6 3cbd ee43 25bd 6237 1cbd 9d53 57bd
00000010: 83a8 8dbc fd74 363d 8457 e03c 19cd e6bc
00000020: d7be 8abd f022 3abc c9f0 93bd 4c07 a7bb
00000030: 2461 c73c eac4 19bc 72a3 813c f861 c63c
00000040: 7a6a af3c 059f 893b e741 80bb df35 3c3d
00000050: 764a 2fbd 700a 69bc e499 093d a2a4 0c3d
00000060: 7d8b 083b c0da bf3c 80ef e73a 94b6 e8b9
00000070: 5d97 2fbd b8b7 633c 858a 063d ff57 40bd
00000080: 8b88 95bd af87 83bd a31c c43c ee79 0cbd
00000090: 8fa0 fc3a 379c c33b 4f8b 36bd 8218 20bd
000000a0: 7850 18bc 89ff 68bd deb1 ecbc ca48 8abc
000000b0: a3e6 c6bb 1ecf 423d 4a7e 0a3d 7db3 573c
000000c0: 4d99 cdbc bdc8 8fbc 61b7 8fbd bc85 49bd
000000d0: c247 c13c 18c5 843c 5927 95bc be12 243d
000000e0: 0038 08bc 8356 92bd 33ca aabb d680 0f3d
000000f0: def9 1bbd f9d7 7ebd b063 3abc f194 8abd
00000100: 77cd 90bd 38ea ffbc e4ff 3cbd 5e5e 4f3d
00000110: 0c9b 29bc 5b1c 2c3c d844 fdbc 22c0 e5bc
00000120: b612 24bd ecba 2cbd 058c febc 3830 11bd
00000130: 3e29 9938 aded ae3c 893c d13c 7a88 413c
00000140: eb75 cfbc 002e 2a3b 769b aa3c e79e 2fbd
00000150: 8ad6 bbbc df53 53bd e565 373d 0a52 8bbc
00000160: 816c c43c db47 8d3c 2f88 da3b d7a2 813c
00000170: 0205 193d b2b6 7b3c e07f e2bc 2b20 e83c
00000180: 621b 1cbd 9616 aebc 5ae0 07bd 3b91 453d
00000190: 3d4e 823b b5a4 033d 916d 1abd 59d3 77bd
000001a0: 89e0 38bd cbfc 49bc 5fa0 7b3b 999f 93bd
000001b0: 9c9f d1bd 59f5 6cbd 8ff1 563d 791b aabc
000001c0: e748 18bc ea61 53bd d5d5 583d a46a 9fbd
000001d0: fd92 023c a48c 283c 4250 193d 958e 6bbd
000001e0: 5873 29bd 5fbb 1f3d 54cc bfbc 8de1 c13b
000001f0: b895 b0bc 02db 75bd 99ee 42bd 95e5 bebd
00000200: 2bc5 1abc 6382 973c f2d3 66bd 766f 7cbd
00000210: a95b 87bd 7093 023d 45c7 63bd ce2c 403c
00000220: 5434 0abd 7aa8 1c3c 2a9f a13c 1d1f 62bd
00000230: c3f7 963c 0c41 6bbb b99f 65bd 9644 34bd
00000240: 5988 68bd 16dc d23c b600 b3bc a739 31bd
00000250: 6398 8cbd faf4 343c 3c89 2ebd d9f1 66bd
00000260: 79fa f8bc 8cbc 1cbd 4118 7fbd 40bd a23c
00000270: 8c5f f2bc a826 c3bc 657b 7ebd 1cfb 71bd
00000280: 62ad 52bc 5aa1 a7bc bda5 a33c b5a0 ee3b
00000290: 97ff d1bc 35b0 51bd 364b 29bd 7c67 4ebd
000002a0: 2166 dfbc 39ae 41bd 1be0 abbd 22c4 b9bc
000002b0: 421f b3bd cbec 783c 316a 0d3d 484a f4bc
000002c0: 369c 11bd 523f fcbb aae4 b9bc 096a 11bc
000002d0: 43f9 85bd b089 5bbd be23 973d 5b98 3cbd
000002e0: 969c 2a3d 34d7 8cbd 76bb 44bd c457 6abd
000002f0: 6ea5 50bc 7707 22bd 982f 87bd 049e 713c
00000300: 4e6a 74bd 9a21 80bd a0e9 b5bc c09b f2bc
00000310: d767 1ebc 003f e2bb 8268 08bc 8431 64bd
00000320: a758 f13c 97dd 03bd 34aa 0bbd 25ef 1cbd
00000330: 398d 8f3c 1320 943c be46 35bd ff34 abbc
00000340: 0bbd 4f3d 5101 d53a 3349 2dbd 6e91 903d
00000350: 976c 45bd d3b0 3e3b 6796 c2bb b77a 863c
00000360: 3419 073d ae48 1dbd 6699 2f3c 0c77 453d
00000370: 5b7f e03b 352f eb3c d14c 903b 953e 433d
00000380: 10fe 65bc 25bb 233d 33a3 bbbc 5afe 1cbd
00000390: 2b56 b9bc 977e 85bd af22 403d adfb 14bd
000003a0: 3220 03bc 59e8 8b3c 985f 08bd fe76 5ebd
000003b0: 1fc4 3e3d 64d3 28bd e48c 533c b91d cc3a
000003c0: 3958 073b b15d 97bd ce60 923c 0971 16bd
000003d0: e305 83bd 02b5 e3bc 51c7 36bd f24d 893d
000003e0: 78af 23bd 1493 163d 140e 093b 7d54 46bd
000003f0: 6449 9ebc 6a15 dd3c 03e3 113d 69d3 0cbd

3.bias f4 [128]
-0.07617492 -0.054952662 -0.021888236 -0.056627087 0.08691193 0.020459615 0.118626215 0.0021056605
-0.044301476 0.094445534 -0.05367248 0.06577344 0.08713082 0.113830335 0.027900558 0.06363167
0.109852254 0.00022831184 0.109851174 -0.0072234664 0.057736963 -0.063378215 -0.040866844 0.09526008
0.059054006 0.07162666 -0.012406954 0.14805597 -0.006454893 0.017071342 0.0856153 -0.036649186
-0.050593585 -0.0051924326 -0.066063605 0.0016974631 0.09469736 0.101897135 0.13703433 0.009193366
0.04133609 0.0825534 0.033088136 0.0985504 0.11555312 0.11611557 -0.048665732 -0.056035317
0.12935767 -0.031163955 0.06077685 -0.07279322 0.04933182 0.039839353 0.07575806 -0.03002893
0.022708924 0.10814393 -0.025665728 -0.026967723 0.07559618 -0.040846802 -0.03262785 0.09065935
0.09908124 0.0030446323 0.017210716 0.086355165 0.13591273 0.035105094 0.118945405 0.0759037
-0.01715363 0.002105492 -0.051468093 0.07781694 0.018634403 0.054107346 0.11008422 0.014109128
-0.073950574 0.10685528 0.055251263 0.1383743 0.054201286 0.050441947 -0.019953484 -0.0035984623
0.023509702 0.08647266 -0.027714727 0.043359052 0.032695826 0.014682816 -0.067620404 0.118203655
0.012334705 0.1169368 0.017057162 0.08283113 0.011353718 0.122184925 0.043245323 0.09052231
-0.02272213 0.0021718226 -0.06710621 0.01616364 0.041482735 0.12186021 -0.021913124 -0.06639531
-0.03414199 0.08476951 -0.05163741 -0.022238059 -0.05670431 0.004663797 0.08317522 0.0049715335
-0.045605615 0.116454706 -0.067374155 -0.037586316 -0.021500606 0.0184875 -0.060699135 -0.048699055
00000000: 9901 9cbd 0b16 61bd f54e b3bc cef1 67bd
00000010: e2fe b13d ec9a a73c 4df2 f23d 1fff 093b
00000020: 7775 35bd a96c c13d add7 5bbd 3ab4 863d
00000030: a571 b23d e11f e93d b68f e43c 5251 823d
00000040: 38fa e03d fe66 6f39 a7f9 e03d d4b2 ecbb
00000050: 987d 6c3d 70cc 81bd fe63 27bd b817 c33d
00000060: 9de2 713d 00b1 923d 8946 4bbc fc9b 173e
00000070: 9183 d3bb 33d9 8b3c 1357 af3d 751d 16bd
00000080: 383b 4fbd 4825 aabb 5b4c 87bd 697d de3a
00000090: b1f0 c13d 72af d03d ba52 0c3e c69f 163c
000000a0: 0850 293d c211 a93d 6d87 073d cbd4 c93d
000000b0: 1da7 ec3d 00ce ed3d b855 47bd 4a85 65bd
000000c0: 5676 043e 8d4b ffbc 25f1 783d 9d14 95bd
000000d0: 2a10 4a3d 972e 233d 0b27 9b3d 3bff f5bc
000000e0: 1108 ba3c 917a dd3d ef40 d2bc 6aeb dcbc
000000f0: 2cd2 9a3d fa4e 27bd c8a4 05bd 9cab b93d
00000100: 1beb ca3d 7488 473b 7dfd 8c3c fada b03d
00000110: b52c 0b3e 5cca 0f3d a699 f33d 6673 9b3d
00000120: c585 8cbc 4bfc 093b 35d0 52bd 7d5e 9f3d
00000130: 2da7 983c aa9f 5d3d d673 e13d f929 673c
00000140: 6673 97bd f1d6 da3d 264f 623d feb1 0d3e
00000150: 2b02 5e3d 379c 4e3d 7d75 a3bc 2ed4 6bbb
00000160: 6b97 c03c 9418 b13d ff09 e3bc 4399 313d
00000170: 0fec 053d 3290 703c 917c 8abd c214 f23d
00000180: 8117 4a3c 907c ef3d 76bb 8b3c 5ea3 a93d
00000190: f204 3a3c 173c fa3d 0222 313d c363 b93d
000001a0: c323 babc 2355 0e3b fb6e 89bd 9c69 843c
000001b0: cde9 293d d991 f93d 2783 b3bc 44fa 87bd
000001c0: 79d8 0bbd a39b ad3d c081 53bd 972c b6bc
000001d0: c742 68bd c4d2 983b c557 aa3d 3fe8 a23b
000001e0: f4cc 3abd ce7f ee3d 76fb 89bd 1cf4 19bd
000001f0: 0a22 b0bc 1973 973c a89f 78bd a978 47bd

6.weight f4 [64, 128]
0.069842376 -0.066868715 -0.08430345 0.01127192 0.064054124 -0.0043264464 -0.0060548913 -0.011801758
0.10559353 -0.0066955797 -0.02373104 0.02645148 -0.02215919 -0.048737235 0.016636172 0.05895708
-0.024986062 -0.018056193 -0.030111901 -0.089024596 0.014330539 0.065025076 -0.040441237 -0.029522251
-0.0720758 0.064481266 -0.007344625 -0.0064724847 -0.016938537 -0.0461807 0.07844867 0.03303076
-0.03297548 -0.00786657 0.028745845 -0.03214124 -0.0041755703 -0.020479348 -0.030468438 0.009987087
-0.0027958201 -0.08167984 0.05545125 0.046885546 -0.030080093 -0.044893652 0.025252854 -0.011425298
-0.064767376 -0.07907505 -0.013478505 -0.011253947 -0.028537488 0.06289614 0.0054939613 -0.09283991
-0.027518518 -0.033177495 -0.009834845 0.017786635 -0.03714984 -0.05608823 0.02736431 -0.017077446
-0.02068129 -0.034286316 0.04528023 0.06919123 -0.06584659 0.046741765 -0.07246695 0.007762891
-0.037013203 0.08357158 0.055066686 0.06882394 0.043318186 0.0076673357 0.0712484 -0.053617056
-0.07442736 0.045035172 -0.08975326 0.04315763 -0.10343185 0.090876296 0.05928758 0.022228215
0.077331245 -0.036537927 0.016989289 0.0477795 -0.012841951 0.09001821 0.04344022 -0.07947929
0.03299244 -0.011558985 -0.045106553 0.05980802 -0.08041292 -0.016651427 -0.077320665 -0.05770239
0.040893517 -0.018965904 0.0837497 -0.059158117 -0.030979244 -0.07711898 0.10379654 0.079255044
-0.0286807 0.0389871 0.05995541 -0.007448896 -3.756666e-05 -0.07390449 0.0746668 0.0027569472
0.050629932 -0.069270976 0.033901107 0.08606428 -0.051202238 -0.033044975 -0.015418778 -0.048510585
-0.019050144 0.020335883 -0.03626709 -0.060629327 0.041031174 0.017112996 -0.009966755 0.0052170525
-0.020981383 0.056832287 0.041989867 -0.049054354 -0.043706555 -0.02117632 0.005944106 0.023373608
-0.04720303 -0.07669563 -0.019932019 0.015194933 0.015255322 -0.013996506 0.037759528 0.009865092
-0.070936516 0.0410361 0.066583134 0.03789606 -0.08646228 0.025591012 -0.0905179 0.048426863
-0.016456755 -0.010636233 0.030278893 0.059877582 0.04326779 -0.045175895 0.021076452 -0.041229323
-0.06551042 -0.07137439 -0.046194427 -0.046606854 0.019517416 0.017627958 0.037392814 -0.07802607
-0.037816036 -0.038689006 -0.019876357 0.006747722 0.009694955 -0.028347906 -0.042237777 0.012711891
0.051863745 0.07096599 0.03843269 0.03390826 -0.022729171 -0.04854248 0.05270435 0.036972277
-0.10724494 0.05586377 0.057505183 -0.06130735 -0.014182226 -0.07112216 0.00601266 -0.06664583
0.06994945 -0.054731667 0.020710042 -0.04511898 -0.03896379 -0.048890274 -0.07669217 -0.11756787
-0.004891723 -0.009539052 0.031788256 -0.002197185 0.04114324 0.03873797 -0.038056497 -0.084765054
-0.024925327 -0.06344407 -0.057069104 0.034066934 -0.044538595 0.018468598 0.048301954 0.004132546
-0.1062146 -0.0059926934 -0.009035092 -0.020826388 0.013868911 0.06349747 -0.054916944 0.05634619
0.044378668 -0.05930294 -0.049817607 -0.026893053 -0.102320574 -0.06218745 -0.009657565 -0.024589527
0.006313438 -0.047301434 0.03454272 0.082178466 -0.07115433 0.010378493 -0.10393408 0.0074392487
0.03111981 0.00564468 -0.035356972 0.052638754 -0.005918321 0.04691254 0.023331344 -0.042807516
00000000: 8509 8f3d 77f2 88bd 4aa7 acbd dcad 383c
00000010: cf2e 833d ddc4 8dbb 1c68 c6bb 295c 41bc
00000020: 6c41 d83d 9866 dbbb 9967 c2bc c6b0 d83c
00000030: 3187 b5bc b2a0 47bd 9548 883c fb7c 713d
00000040: 92af ccbc 95ea 93bc 3cad f6bc 8752 b6bd
00000050: a3ca 6a3c de2b 853d b6a5 25bd a6d8 f1bc
00000060: 7a9c 93bd c10e 843d 2eab f0bb 2317 d4bb
00000070: b0c2 8abc f927 3dbd b2a9 a03d 434b 073d
00000080: 4c11 07bd c9e2 00bc 687c eb3c 88a6 03bd
00000090: 39d3 88bb 4ec4 a7bc f298 f9bc e1a0 233c
000000a0: 143a 37bb c347 a7bd da20 633d 0f0b 403d
000000b0: 876a f6bc 68e2 37bd 13df ce3c 2c31 3bbc
000000c0: c2a4 84bd 1af2 a1bd f3d4 5cbc 7a62 38bc
000000d0: 73c7 e9bc b1cf 803d b006 b43b da22 bebd
000000e0: 846e e1bc 20e5 07bd 5422 21bc 47b5 913c
000000f0: 6e2a 18bd c6bc 65bd 1e2b e03c 00e6 8bbc
00000100: cf6b a9bc cf6f 0cbd c377 393d 22b4 8d3d
00000110: 94da 86bd 4b74 3f3d 8d69 94bd d95f fe3b
00000120: 289b 17bd 9427 ab3d 9b8d 613d 91f3 8c3d
00000130: 696e 313d 463e fb3b aeea 913d 8f9d 5bbd
00000140: 5f6d 98bd cd76 383d 8fd0 b7bd 0ec6 303d
00000150: 14d4 d3bd 5a1d ba3d 89d7 723d f217 b63c
00000160: d85f 9e3d cba8 15bd 1f2d 8b3c 70b4 433d
00000170: 0c67 52bc 785b b83d 5fee 313d 0ac6 a2bd
00000180: 1523 073d e661 3dbc a6c1 38bd 41f9 743d
00000190: 87af a4bd 9368 88bc 4c5a 9ebd 5759 6cbd
000001a0: f67f 273d 625e 9bbc f684 ab3d c84f 72bd
000001b0: 2fc8 fdbc 8ef0 9dbd 4893 d43d 7850 a23d
000001c0: caf3 eabc f0b0 1f3d ce93 753d de15 f4bb
000001d0: e590 1db8 3d5b 97bd e8ea 983d e6ad 343b
000001e0: 5561 4f3d f1dd 8dbd e3db 0a3d 7842 b03d
000001f0: 70b9 51bd 2b5a 07bd 0b9f 7cbc 09b3 46bd
00000200: 0c0f 9cbc 7097 a63c cd8c 14bd 7556 78bd
00000210: 4e10 283d 8e30 8c3c 9a4b 23bc cff3 aa3b
00000220: 26e1 abbc f9c8 683d 91fd 2b3d 38ed 48bd
00000230: a505 33bd f679 adbc c6c6 c23b 027a bf3c
00000240: f757 41bd 9912 9dbd 7948 a3bc 2bf4 783c
00000250: 75f1 793c 9a51 65bc bca9 1a3d 32a1 213c
00000260: 2a47 91bd 7815 283d bd5c 883d e638 1b3d
00000270: 2313 b1bd 3ea4 d13c 7361 b9bd 3f5b 463d
00000280: 51d0 86bc 9843 2ebc 710b f83c 3242 753d
00000290: 9139 313d 5c0a 39bd 86a8 ac3c 14e0 28bd
000002a0: 542a 86bd bc2c 92bd 5e36 3dbd d4e6 3ebd
000002b0: fde2 9f3c 8268 903c 3529 193d 22cc 9fbd
000002c0: fde4 1abd 5d78 1ebd bed3 a2bc ff1b dd3b
000002d0: 97d7 1e3c de39 e8bc 8501 2dbd 8945 503c
000002e0: 146f 543d 9e56 913d 996b 1d3d 63e3 0a3d
000002f0: 8732 babc 7bd4 46bd 84e0 573d 3e70 173d
00000300: 3ca3 dbbd 69d1 643d 8e8a 6b3d 6a1d 7bbd
00000310: 915c 68bc 7fa8 91bd d905 c53b 9c7d 88bd
00000320: a841 8f3d 502e 60bd 1ba8 a93c aece 38bd
00000330: 7f98 1fbd 2b41 48bd c910 9dbd 6cc7 f0bd
00000340: bf4a a0bb af49 1cbc 6734 023d a6fe 0fbb
00000350: d085 283d b5ab 1e3d 21e1 1bbd 4d99 adbd
00000360: 3330 ccbc f7ee 81bd 4bc1 69bd c589 0b3d
00000370: 1a6e 36bd 754b 973c 45d8 453d 4f6a 873b
00000380: 0a87 d9bd 5b5e c4bb ec07 14bc 1a9c aabc
00000390: 6e3a 633c f60a 823d 97f0 60bd 43cb 663d
000003a0: 68c6 353d a4e7 72bd 8c0d 4cbd d24e dcbc
000003b0: 738d d1bd 44b8 7ebd c33a 1ebc fa6f c9bc
000003c0: f5e0 ce3b 26bf 41bd ab7c 0d3d 2f4d a83d
000003d0: 5db9 91bd 8e0a 2a3c 64db d4bd f1c4 f33b
000003e0: f9ee fe3c 02f7 b83b 79d2 10bd bc9b 573d
000003f0: 7aee c1bb 5d27 403d 6021 bf3c ef56 2fbd

6.bias f4 [64]
0.2102119 0.04478166 0.1695564 -0.07514934 0.041040123 0.22648881 -0.08746932 -0.030815402
-0.0138642 -0.05396549 -0.05071512 0.15228008 0.19172695 0.17406628 -0.052484564 0.15848526
0.1863409 -0.035395775 0.116736494 -0.047481716 0.06753774 -0.06533596 -0.029925885 -0.07079589
0.16861036 -0.029084057 0.06578194 -0.048251446 0.11267056 -0.0891274 0.041851357 0.09751292
0.10333734 0.2697382 0.21677612 0.05635164 0.22140823 0.055522904 -0.057652246 -0.022411738
0.108471766 -0.08689849 -0.013689314 0.24493864 0.16343614 -0.05949673 -0.08556588 0.2092788
0.2352174 0.17900962 0.012761 0.20452113 0.06365297 0.0109173 0.2557701 -0.008810127
-0.0073384517 -0.024017155 -0.016404027 0.02235309 0.22207835 -0.043044098 0.23566762 0.06832927
00000000: ca41 573e f96c 373d 31a0 2d3e e6e7 99bd
00000010: b019 283d afec 673e 1d23 b3bd 9570 fcbc
00000020: ab26 63bc eb0a 5dbd a8ba 4fbd 4fef 1b3e
00000030: 1254 443e 6e3e 323e 0efa 56bd f649 223e
00000040: 26d0 3e3e 29fb 10bd 8b13 ef3d 307c 42bd
00000050: 3a51 8a3d dcce 85bd 2127 f5bc 70fd 90bd
00000060: 32a8 2c3e b041 eebc afb8 863d 4fa3 45bd
00000070: d3bf e63d 6d88 b6bd 546c 2b3d dbb4 c73d
00000080: 87a2 d33d 201b 8a3e 8ffa 5d3e fad0 663d
00000090: d7b8 623e fc6b 633d c324 6cbd d298 b7bc
000000a0: 7226 de3d d6f7 b1bd 2549 60bc 32d1 7a3e
000000b0: ce5b 273e d8b2 73bd 2a3d afbd 2f4d 563e
000000c0: d5dc 703e 4c4e 373e 8313 513c fd6d 513e
000000d0: 7d5c 823d 7ade 323c 4cf4 823e 5a58 10bc
000000e0: 6577 f0bb a0bf c4bc bd61 86bc d41d b73c
000000f0: 8268 633e 024f 30bd da52 713e 37f0 8b3d

8.weight f4 [50, 64]
0.025651874 0.025224976 -0.08271703 -0.0775356 0.0053196084 0.07411135 -0.10008838 -0.0023821301
0.08384256 -0.03534007 -0.06452854 -0.06856908 -0.02269184 0.041782554 -0.09885043 0.03592173
-0.021538043 0.08177289 0.13749687 0.11830403 -0.026470164 0.09878086 0.08163073 0.08318062
-0.0640933 0.104935646 0.018992683 -0.019155888 0.0010471945 0.12379716 0.022970928 -0.037263468
-0.036469035 0.10760144 -0.03378847 -0.04792696 0.09129775 -0.06555249 -0.117844716 -0.05525714
-0.039524738 -0.010803521 -0.08039399 0.0427376 0.040850464 -0.0897679 0.09967126 0.10972654
-0.091870256 0.10392617 0.04058756 -0.042753547 0.013385743 0.056486998 0.019840682 -0.053560697
-0.06042103 0.13311782 -0.11823575 0.03861616 0.05460276 -0.057555795 0.034901436 -0.038409494
0.010774349 0.09744285 -0.0004555943 0.07537689 0.020628352 0.052605934 0.11351659 -0.029180601
-0.003242294 0.068718754 -0.021598674 0.019244796 -0.0805543 0.13458773 -0.06849753 0.053661488
0.070662975 -0.03596989 -0.024771238 0.088584125 -0.058191452 0.073302284 -0.04999471 0.08839953
0.011288765 -0.04538626 -0.07497465 0.102911994 -0.040882852 0.10091469 -0.041855615 -0.019337714
-0.093534105 -0.05429201 0.0857339 0.004601441 0.0018952643 -0.07577473 -0.028085686 0.01744301
0.1341553 0.006797403 -0.05842926 0.049211014 -0.052040204 -0.015765658 0.061161317 -0.05833818
0.073020846 -0.060230438 0.0119200125 -0.07816755 -0.07871104 0.12849206 0.07120562 0.070270926
0.11680483 -0.07104445 -0.07242639 0.06058256 -0.008589829 -0.01109141 -0.04131311 -0.08721922
0.020661242 -0.01104582 -0.118282355 -0.10969625 -0.06997058 0.084107004 0.10378493 -0.10273475
-0.04459268 0.08002573 -0.08639601 -0.036157917 0.06972531 -0.11481993 0.09394461 0.067628585
0.004043059 -0.08225715 -0.008609268 0.05233296 0.02009552 0.03541142 -0.054809254 -0.050419528
-0.006798303 0.08415242 -0.013809057 -0.046469938 -0.09835557 0.11632761 -0.060310014 0.040211853
-0.058529686 -0.027928416 0.08441097 0.018086268 0.028026901 0.08723236 -0.09380185 -0.042337082
0.06887928 0.0042123883 0.0513066 0.044951554 -0.047958635 0.047132753 0.0066811526 0.007801359
0.06744346 -0.06923412 0.023483858 0.06261978 -0.04324085 0.10523741 -0.056790013 0.09531226
-0.042786483 -0.010127777 0.076183364 0.013665565 0.02430285 -0.13174699 0.04156175 0.045604005
0.08461495 0.042998664 -0.026757734 -0.09433463 0.044714574 -0.037469465 0.020600906 0.03999344
0.13047071 -0.019543141 -0.04669801 -0.019854309 0.1463984 0.008036995 -0.05428445 0.08193383
-0.068656966 -0.01876199 0.019568494 -0.03259966 0.012331831 -0.08346909 -0.028955994 0.0017088205
0.044944678 0.020633219 0.009878578 0.0353648 -0.017391417 -0.056637987 0.044937424 0.042804793
-0.058284782 0.093748055 0.004561286 -0.10486411 0.12917946 -0.016710375 -0.080458164 0.049680836
0.00074068486 0.013014793 -0.08342711 0.063548714 0.103645526 0.10107548 -0.057192914 -0.041636303
-0.049676947 0.074690275 -0.04580836 0.024468873 -0.06759651 -0.027603375 0.0056213816 -0.053076115
0.0502292 -0.07592397 -0.015978958 0.101055324 0.0463492 -0.06419841 -0.0658362 0.0028960125
00000000: e123 d23c 9ca4 ce3c 8c67 a9bd fcca 9ebd
00000010: 1c50 ae3b b1c7 973d 23fb ccbd 831d 1cbb
00000020: a6b5 ab3d c0c0 10bd 8a27 84bd f26d 8cbd
00000030: 3de4 b9bc 2f24 2b3d 1872 cabd aa22 133d
00000040: 8d70 b0bc 8c78 a73d fbcb 0c3e 6249 f23d
00000050: f5d7 d8bc 9f4d ca3d 032e a73d 9a5a aa3d
00000060: 5943 83bd 80e8 d63d 8b96 9b3c cfec 9cbc
00000070: 0442 893a 5e89 fd3d 872d bc3c 94a1 18bd
00000080: 8e60 15bd 255e dc3d c765 0abd 0f4f 44bd
00000090: 51fa ba3d 6240 86bd 9258 f1bd 5055 62bd
000000a0: b1e4 21bd 4001 31bc 9ba5 a4bd 9f0d 2f3d
000000b0: d152 273d 3cd8 b7bd 7220 cc3d 4fb8 e03d
000000c0: 7926 bcbd 3ed7 d43d 243f 263d 581e 2fbd
000000d0: e04f 5b3c e95e 673d ed88 a23c 7662 5bbd
000000e0: 0b7c 77bd 0a50 083e 9625 f2bd fb2b 1e3d
000000f0: 25a7 5f3d a0bf 6bbd cff4 0e3d 4653 1dbd
00000100: e586 303c 1e90 c73d d5dc eeb9 335f 9a3d
00000110: cafc a83c 5279 573d 637b e83d 280c efbc
00000120: ab7c 54bb 6bbc 8c3d b4ef b0bc 43a7 9d3c
00000130: a7f9 a4bd 5ed1 093e 6f48 8cbd 26cc 5b3d
00000140: c0b7 903d 2a55 13bd 0ded cabc 986b b53d
00000150: 295a 6ebd 821f 963d 41c7 4cbd d00a b53d
00000160: 83f4 383c f1e6 39bd 4f8c 99bd 86c3 d23d
00000170: c774 27bd 5cac ce3d cb70 2bbd 206a 9ebc
00000180: cf8e bfbd 4c61 5ebd 4195 af3d afc7 963b
00000190: 846a f83a c82f 9bbd f413 e6bc a5e4 8e3c
000001a0: 0260 093e c0bc de3b 8553 6fbd 7d91 493d
000001b0: 1c28 55bd fb26 81bc 4a84 7a3d 04f4 6ebd
000001c0: f48b 953d 31b4 76bd 284c 433c 4f16 a0bd
000001d0: 4133 a1bd 6c93 033e 41d4 913d 34ea 8f3d
000001e0: 5f37 ef3d c17f 91bd 4a54 94bd 6b25 783d
000001f0: 5bbc 0cbc bfb8 35bc f037 29bd fe9f b2bd
00000200: c441 a93c 87f9 34bc 053e f2bd 6da8 e0bd
00000210: bc4c 8fbd 4b40 ac3d 328d d43d 9966 d2bd
00000220: d0a6 36bd 88e4 a33d 64f0 b0bd 531a 14bd
00000230: 25cc 8e3d b626 ebbd 0866 c03d db80 8a3d
00000240: a37b 843b 7076 a8bd e30d 0dbc 165b 563d
00000250: 5c9f a43c 910b 113d ab7f 60bd b584 4ebd
00000260: 4dc4 debb 1b58 ac3d 623f 62bc 4357 3ebd
00000270: a56e c9bd 2c3d ee3d a207 77bd 2fb5 243d
00000280: d3bc 6fbd 22ca e4bc a9df ac3d a729 943c
00000290: ac98 e53c e1a6 b23d 2f1b c0bd a669 2dbd
000002a0: 9410 8d3d 1308 8a3b df26 523d 1f1f 383d
000002b0: 4670 44bd 460e 413d 92ed da3b 8ba2 ff3b
000002c0: cc1f 8a3d 9eca 8dbd 3861 c03c cd3e 803d
000002d0: 511d 31bd b686 d73d a59c 68bd 1333 c33d
000002e0: e140 2fbd faee 25bc 0606 9c3d 89e5 5f3c
000002f0: c516 c73c afe8 06be a73c 2a3d 44cb 3a3d
00000300: 9a4a ad3d 5e1f 303d 0933 dbbc 8432 c1bd
00000310: a126 373d 9579 19bd 3bc3 a83c 29d0 233d
00000320: 1d9a 053e f018 a0bc 6a46 3fbd 81a5 a2bc
00000330: 76e9 153e 9aad 033c 5f59 5ebd edcc a73d
00000340: 069c 8cbd bfb2 99bc 1b4e a03c 3987 05bd
00000350: 730b 4a3c d8f1 aabd 1f35 edbc 80fa df3a
00000360: e917 383d ff06 a93c c2d9 213c aeda 103d
00000370: 7278 8ebc 3cfd 67bd 4e10 383d 1454 2f3d
00000380: 06bc 6ebd fbfe bf3d d776 953b ffc2 d6bd
00000390: 9f47 043e 32e4 88bc 40c7 a4bd 227e 4b3d
000003a0: 852a 423a 003c 553c d5db aabd d425 823d
000003b0: 1b44 d43d a900 cf3d 1e43 6abd d48a 2abd
000003c0: 0e7a 4bbd 37f7 983d 8ca1 3bbd f272 c83c
000003d0: 0a70 8abd 7920 e2bc 9133 b83b 5766 59bd
000003e0: 22bd 4d3d 077e 9bbd 4ee6 82bc 18f6 ce3d
000003f0: a9d8 3d3d 757a 83bd 21d5 86bd 07cb 3d3b

8.bias f4 [50]
-0.08161821 0.07943128 -0.011277258 -0.08076682 0.03409135 -0.025330592 0.0916697 0.05061494
0.07374024 0.03412903 -0.05001465 0.10072226 -0.04343801 0.08294842 -0.07716609 0.008193228
0.04018939 0.105820544 -0.036812104 -0.050548997 0.1509417 0.12599984 0.05984638 0.04182799
0.24826717 -0.09276394 -0.022990791 0.01269839 0.09033985 -0.02415803 -0.09685897 0.041014932
0.10508193 0.05226475 0.10148268 0.08493445 0.09723387 0.0013764047 -0.0683911 0.0022180981
-0.050728854 0.09096433 -0.03647027 -0.04947712 0.0051455875 -0.016497152 0.12292323 0.05638129
0.07271507 -0.028414942
00000000: 7327 a7bd deac a23d 40c4 38bc 1369 a5bd
00000010: 5fa3 0b3d 1a82 cfbc 53bd bb3d 9c51 4f3d
00000020: 1f05 973d e2ca 0b3d 29dc 4cbd 7947 ce3d
00000030: 0eec 31bd dce0 a93d 4109 9ebd e43c 063c
00000040: a19d 243d 71b8 d83d 4ac8 16bd 770c 4fbd
00000050: 7690 1a3e 1a06 013e 7a21 753d d453 2b3d
00000060: c039 7e3e 05fb bdbd 2f57 bcbc e80c 503c
00000070: 1904 b93d 10e7 c5bc ff5d c6bd 46ff 273d
00000080: 3235 d73d 9013 563d 27d6 cf3d 1df2 ad3d
00000090: 8d22 c73d 7a68 b43a a210 8cbd 835d 113b
000000a0: 0fc9 4fbd 824b ba3d da61 15bd 85a8 4abd
000000b0: 519c a83b 0925 87bc 2dbf fb3d 11f0 663d
000000c0: a3eb 943d 74c6 e8bc

exp_avg f4 [256, 77]
-4.6294963e-06 3.614658e-06 -1.3587866e-06 1.2339931e-06 -1.953138e-06 -4.0802665e-06 1.3142059e-06 -2.7787374e-07
-7.485368e-10 1.4757312e-10 -4.2708604e-07 -3.1872534e-07 -1.4629469e-06 -3.84466e-08 6.954108e-08 -5.576466e-07
-1.3320991e-06 4.287122e-06 7.4731474e-07 -3.205484e-06 -2.143905e-08 -2.4195135e-11 5.7194984e-07 -3.478549e-08
-2.3837681e-07 -4.723329e-07 -5.4120935e-08 -3.5327545e-08 -1.8955346e-07 4.2057633e-07 -4.905981e-08 -1.1209165e-06
3.3603111e-09 2.346785e-07 -3.656125e-08 6.67746e-08 1.0629923e-07 -2.781154e-06 -1.094051e-06 -5.7927826e-07
1.9597864e-14 -2.1340675e-07 -7.3865266e-08 2.5558361e-07 6.8422864e-08 2.9577827e-06 -6.5346796e-08 -6.410183e-07
-8.865436e-07 -3.8307635e-07 -6.840612e-07 -3.8626487e-07 -2.5874036e-07 2.9828408e-07 -3.8498534e-08 -4.7506088e-08
-4.682273e-38 -2.3255792e-07 2.7214724e-09 0.0 4.3878427e-07 3.670179e-08 2.0191855e-08 1.2493535e-07
9.041831e-08 1.9602907e-14 -1.6089509e-06 1.6250083e-07 5.856003e-07 2.0719044e-06 6.505631e-08 -2.2184274e-06
-4.753696e-06 -1.4536283e-06 4.6215396e-07 2.6649057e-06 3.956702e-07 3.2005737e-06 -1.0122234e-06 4.010129e-06
2.0726086e-06 2.0376442e-06 -9.305552e-07 2.1118717e-06 -3.3204546e-07 5.7947386e-07 -4.0914833e-07 -1.9058992e-07
2.3589291e-07 -2.1102483e-07 -4.7624138e-07 -1.5116781e-07 2.5931908e-07 -4.0653447e-08 -9.208825e-08 -1.5144053e-07
3.6573934e-07 2.0930859e-08 -6.727654e-08 -2.2521455e-07 -1.3153775e-07 1.0942774e-06 6.5948404e-07 4.4462797e-07
2.2533189e-07 -1.7125446e-08 6.205953e-08 -3.9107512e-10 -4.668584e-08 -2.0933766e-09 -1.8384669e-14 -3.496908e-07
-1.2506975e-07 3.912096e-18 2.611129e-07 9.512857e-37 4.4104542e-07 -1.10940334e-07 1.576856e-07 -2.2721694e-07
-7.5876095e-08 6.2152774e-12 1.206348e-06 -4.47663e-37 -2.1718304e-07 -5.6400244e-09 -4.8906927e-08 2.7015128e-08
-8.997659e-09 -8.401138e-08 -8.719249e-10 1.781117e-07 4.970769e-07 -6.711286e-08 -5.8033397e-08 -2.8345295e-07
3.327184e-07 -1.8855708e-07 5.9832237e-09 -1.6017816e-07 -1.3855202e-07 -4.999368e-07 -1.8383685e-14 1.5710133e-06
5.6175526e-09 1.0803162e-07 -1.8029792e-07 8.935341e-08 8.201522e-08 3.654229e-09 1.7191052e-06 1.8239183e-07
-5.278527e-07 -1.8705234e-07 -8.181091e-07 1.9747797e-06 -5.4751688e-08 7.808141e-07 3.7142382e-07 -9.475703e-07
-4.9041844e-08 -3.9667523e-07 2.0561038e-07 -2.104277e-07 -5.193523e-07 -1.7500463e-07 -1.2277373e-07 -3.771854e-09
9.906726e-08 -6.0559813e-07 2.9680635e-07 5.307149e-08 6.5177524e-08 1.4728013e-07 -6.871164e-08 3.1437743e-08
2.5853825e-07 1.3841772e-07 4.207003e-08 -2.2944344e-07 -2.3300961e-09 1.6360701e-07 7.1222146e-08 -6.588675e-08
-2.3602516e-07 -9.91392e-08 -4.6779235e-08 -1.4148645e-07 1.8131554e-07 -5.8041852e-08 -5.648582e-07 2.4042424e-07
-9.50426e-08 -1.4863934e-07 -4.7022863e-10 -1.2290841e-08 1.3786662e-07 4.1880662e-07 -3.302368e-08 -3.814347e-07
2.2131378e-07 -5.4804974e-07 -9.50137e-08 0.0 -1.5924867e-07 -3.1555436e-07 -2.8750588e-07 1.2212259e-07
2.4322126e-35 -3.0649235e-07 3.27682e-09 1.35285605e-08 1.5658281e-07 5.1442818e-08 -3.6361325e-08 2.2917282e-08
-4.044379e-07 2.6090014e-08 8.2173746e-10 0.0 -3.3861568e-08 1.6360701e-07 8.147423e-08 -1.4283967e-07
2.1348089e-07 -4.4349882e-08 -2.1754737e-07 -1.0399749e-06 -3.8667866e-07 5.8708656e-07 3.4211176e-08 -3.468039e-06
-7.1411296e-07 -2.6038879e-06 -8.708539e-06 -1.0016104e-05 4.970219e-06 -8.9261783e-07 4.515782e-06 -7.1431293e-07
-6.010028e-08 1.0943011e-06 -1.0329105e-06 7.392977e-07 1.0160841e-07 -2.3483887e-10 -3.8448476e-07 2.0792992e-07
2.1577675e-07 1.7250139e-07 -3.207799e-07 2.1800547e-11 1.1872041e-28 -4.8808124e-07 -4.2553476e-09 -6.012064e-08
00000000: 1257 9bb6 5a93 7236 8d5f b6b5 ae9f a535
00000010: a812 03b6 39e9 88b6 c563 b035 ad2e 95b4
00000020: 98c1 4db0 2442 222f 424a e5b4 471d abb4
00000030: 795a c4b5 7c20 25b3 9d56 9533 2fb1 15b5
00000040: 94ca b2b5 19da 8f36 149b 4835 cc1d 57b6
00000050: f828 b8b2 9ad2 d4ad 1888 1935 0d67 15b3
00000060: 85f4 7fb4 f194 fdb4 9972 68b3 0cbb 17b3
00000070: 0f88 4bb4 92cb e134 d5b5 52b3 6672 96b5
00000080: 38eb 6631 effb 7b34 8507 1db3 b965 8f33
00000090: 9f46 e433 dda3 3ab6 4ed7 92b5 b37f 1bb5
000000a0: 9985 b028 cd24 65b4 dc9f 9eb3 2537 8934
000000b0: deef 9233 527e 4636 c854 8cb3 7112 2cb5
000000c0: d0fa 6db5 9da9 cdb4 54a0 37b5 d75f cfb4
000000d0: 01e9 8ab4 da23 a034 9659 25b3 7f09 4cb3
000000e0: 5ced 7e81 09b5 79b4 a604 3b31 0000 0000
000000f0: 0d92 eb34 0ba2 1d33 5c72 ad32 f825 0634
00000100: fe2b c233 3a91 b028 22f3 d7b5 e37b 2e34
00000110: 2532 1d35 0c0b 0b36 16b5 8b33 4be0 14b6
00000120: f081 9fb6 4a1a c3b5 f51d f834 bbd6 3236
00000130: 806c d434 70c9 5636 bbdb 87b5 bf8e 8636
00000140: 2517 0b36 76be 0836 44cb 79b5 aeb9 0d36
00000150: fb43 b2b4 248d 1b35 eba8 dbb4 f5a4 4cb4
00000160: c049 7d34 1096 62b4 1eae ffb4 b150 22b4
00000170: 8b38 8b34 f09a 2eb3 0dc2 c5b3 a89b 22b4
00000180: d55a c434 72cb b332 ab79 90b3 81d2 71b4
00000190: d23c 0db4 16df 9235 6607 3135 34b5 ee34
000001a0: c2f2 7134 411b 93b2 9645 8533 eefe d6af
000001b0: a083 48b3 12db 0fb1 2998 a5a8 23bd bbb4
000001c0: e94a 06b4 b454 9022 152f 8c34 56da a103
000001d0: d2c8 ec34 183e eeb3 4a50 2934 ebf8 73b4
000001e0: 53f1 a2b3 3eae da2c cde9 a135 f254 1883
000001f0: d232 69b4 2eca c1b1 bc0d 52b3 e50e e832
00000200: 1f94 1ab2 bf69 b4b3 43ac 6fb0 f93e 3f34
00000210: dd6e 0535 af1f 90b3 6540 79b3 7a2d 98b4
00000220: 78a0 b234 2d76 4ab4 fe94 cd31 70fd 2bb4
00000230: e4c4 14b4 6533 06b5 e495 a5a8 9bdb d235
00000240: 8404 c131 03ff e733 ea97 41b4 8ee2 bf33
00000250: 5820 b033 e01d 7b31 01bc e635 7cd7 4334
00000260: c3b1 0db5 8ed8 48b4 079c 5bb5 7586 0436
00000270: 1e28 6bb3 2399 5135 1a68 c734 895c 7eb5
00000280: 14a2 52b3 a1f6 d4b4 c0c5 5c34 edf1 61b4
00000290: 9e69 0bb5 e8e8 3bb4 c9d3 03b4 9499 81b1
000002a0: cdbe d433 6390 22b5 c158 9f34 b8f0 6333
000002b0: b9f7 8b33 0e24 1e34 a08e 93b3 2a06 0733
000002c0: 3acd 8a34 f99f 1434 7db0 3433 ef5c 76b4
000002d0: 7c1f 20b1 f4ab 2f34 caf2 9833 a07d 8db3
000002e0: 1a6e 7db4 5ae6 d4b3 50ea 48b3 80eb 17b4
000002f0: a3af 4234 b149 79b3 c3a0 17b5 a813 8134
00000300: 391a ccb3 ac99 1fb4 6641 01b0 b127 53b2
00000310: 7d08 1434 58d8 e034 ecd5 0db3 fcc7 ccb4
00000320: 45a2 6d34 b11d 13b5 550a ccb3 0000 0000
00000330: f1fd 2ab4 7669 a9b4 825a 9ab4 cd20 0334
00000340: 9051 0106 fd8b a4b4 6d2e 6131 3d6b 6832
00000350: 2821 2834 faf1 5c33 b32b 1cb3 a3db c432
00000360: 8621 d9b4 8c1c e032 a2e0 6130 0000 0000
00000370: 306f 11b3 f4ab 2f34 eef6 ae33 785f 19b4
00000380: 2e39 6534 367b 3eb3 f796 69b4 4495 8bb5
00000390: b698 cfb4 4898 1d35 96ef 1233 75bc 68b6
000003a0: 78b1 3fb5 74be 2eb6 e41a 12b7 d70a 28b7
000003b0: dbc5 a636 3b9c 6fb5 4686 9736 36bf 3fb5
000003c0: 7a10 81b3 e6df 9235 89a2 8ab5 2774 4635
000003d0: d033 da33 a21a 81af 2f6b ceb4 5743 5f34
000003e0: 43b0 6734 d238 3934 a737 acb4 78c2 bf2d
000003f0: fa7e 1611 b004 03b5 6f36 92b1 ac1b 81b3
